/home/exing/miniconda3/envs/mgdt/lib/python3.10/site-packages/tensorflow/python/framework/dtypes.py:246: DeprecationWarning: `np.bool8` is a deprecated alias fo$
 `np.bool_`.  (Deprecated NumPy 1.24)
  np.bool8: (False, True),
A.L.E: Arcade Learning Environment (version 0.7.5+db37282)
[Powered by Stella]
num_envs: 8 <SequenceEnvironmentWrapper<AtariPreprocessing<TimeLimit<OrderEnforcing<StepAPICompatibility<PassiveEnvChecker<AtariEnv<ALE/Breakout-v5>>>>>>>>
MultiGameDecisionTransformer(
  (transformer): Transformer(
    (layers): ModuleList(
      (0): Block(
        (ln_1): LayerNorm((1280,), eps=1e-05, elementwise_affine=True)
        (attn): CausalSelfAttention(
          (qkv): Linear(in_features=1280, out_features=3840, bias=True)
          (proj): Linear(in_features=1280, out_features=1280, bias=True)
        )
        (dropout_1): Dropout(p=0.1, inplace=False)
        (ln_2): LayerNorm((1280,), eps=1e-05, elementwise_affine=True)
        (mlp): MLP(
          (fc1): Linear(in_features=1280, out_features=5120, bias=True)
          (act): GELU(approximate=tanh)
          (fc2): Linear(in_features=5120, out_features=1280, bias=True)
        )
        (dropout_2): Dropout(p=0.1, inplace=False)
      )
      (1): Block(
        (ln_1): LayerNorm((1280,), eps=1e-05, elementwise_affine=True)
        (attn): CausalSelfAttention(
          (qkv): Linear(in_features=1280, out_features=3840, bias=True)
          (proj): Linear(in_features=1280, out_features=1280, bias=True)
        )
        (dropout_1): Dropout(p=0.1, inplace=False)
        (ln_2): LayerNorm((1280,), eps=1e-05, elementwise_affine=True)
        (mlp): MLP(
          (fc1): Linear(in_features=1280, out_features=5120, bias=True)
          (act): GELU(approximate=tanh)
          (fc2): Linear(in_features=5120, out_features=1280, bias=True)
        )
        (dropout_2): Dropout(p=0.1, inplace=False)
      )
      (2): Block(
        (ln_1): LayerNorm((1280,), eps=1e-05, elementwise_affine=True)
        (attn): CausalSelfAttention(
          (qkv): Linear(in_features=1280, out_features=3840, bias=True)
          (proj): Linear(in_features=1280, out_features=1280, bias=True)
        )
        (dropout_1): Dropout(p=0.1, inplace=False)
        (ln_2): LayerNorm((1280,), eps=1e-05, elementwise_affine=True)
        (mlp): MLP(
          (fc1): Linear(in_features=1280, out_features=5120, bias=True)
          (act): GELU(approximate=tanh)
          (fc2): Linear(in_features=5120, out_features=1280, bias=True)
        )
        (dropout_2): Dropout(p=0.1, inplace=False)
      )
      (3): Block(
        (ln_1): LayerNorm((1280,), eps=1e-05, elementwise_affine=True)
        (attn): CausalSelfAttention(
          (qkv): Linear(in_features=1280, out_features=3840, bias=True)
          (proj): Linear(in_features=1280, out_features=1280, bias=True)
        )
        (dropout_1): Dropout(p=0.1, inplace=False)
        (ln_2): LayerNorm((1280,), eps=1e-05, elementwise_affine=True)
        (mlp): MLP(
          (fc1): Linear(in_features=1280, out_features=5120, bias=True)
          (act): GELU(approximate=tanh)
          (fc2): Linear(in_features=5120, out_features=1280, bias=True)
        )
        (dropout_2): Dropout(p=0.1, inplace=False)
      )
      (5): Block(
        (ln_1): LayerNorm((1280,), eps=1e-05, elementwise_affine=True)
        (attn): CausalSelfAttention(
          (qkv): Linear(in_features=1280, out_features=3840, bias=True)
          (proj): Linear(in_features=1280, out_features=1280, bias=True)
        )
        (dropout_1): Dropout(p=0.1, inplace=False)
        (ln_2): LayerNorm((1280,), eps=1e-05, elementwise_affine=True)
        (mlp): MLP(
          (fc1): Linear(in_features=1280, out_features=5120, bias=True)
          (act): GELU(approximate=tanh)
          (fc2): Linear(in_features=5120, out_features=1280, bias=True)
        )
        (dropout_2): Dropout(p=0.1, inplace=False)
      )
      (6): Block(
        (ln_1): LayerNorm((1280,), eps=1e-05, elementwise_affine=True)
        (attn): CausalSelfAttention(
          (qkv): Linear(in_features=1280, out_features=3840, bias=True)
          (proj): Linear(in_features=1280, out_features=1280, bias=True)
        )
        (dropout_1): Dropout(p=0.1, inplace=False)
        (ln_2): LayerNorm((1280,), eps=1e-05, elementwise_affine=True)
        (mlp): MLP(
          (fc1): Linear(in_features=1280, out_features=5120, bias=True)
          (act): GELU(approximate=tanh)
          (fc2): Linear(in_features=5120, out_features=1280, bias=True)
        )
        (dropout_2): Dropout(p=0.1, inplace=False)
      )
      (7): Block(
        (ln_1): LayerNorm((1280,), eps=1e-05, elementwise_affine=True)
        (attn): CausalSelfAttention(
          (qkv): Linear(in_features=1280, out_features=3840, bias=True)
          (proj): Linear(in_features=1280, out_features=1280, bias=True)
        )
        (dropout_1): Dropout(p=0.1, inplace=False)
        (ln_2): LayerNorm((1280,), eps=1e-05, elementwise_affine=True)
        (mlp): MLP(
          (fc1): Linear(in_features=1280, out_features=5120, bias=True)
          (act): GELU(approximate=tanh)
          (fc2): Linear(in_features=5120, out_features=1280, bias=True)
        )
        (dropout_2): Dropout(p=0.1, inplace=False)
      )
      (8): Block(
        (ln_1): LayerNorm((1280,), eps=1e-05, elementwise_affine=True)
        (attn): CausalSelfAttention(
          (qkv): Linear(in_features=1280, out_features=3840, bias=True)
          (proj): Linear(in_features=1280, out_features=1280, bias=True)
        )
        (dropout_1): Dropout(p=0.1, inplace=False)
        (ln_2): LayerNorm((1280,), eps=1e-05, elementwise_affine=True)
        (mlp): MLP(
          (fc1): Linear(in_features=1280, out_features=5120, bias=True)
          (act): GELU(approximate=tanh)
          (fc2): Linear(in_features=5120, out_features=1280, bias=True)
        )
        (dropout_2): Dropout(p=0.1, inplace=False)
      )
      (9): Block(
        (ln_1): LayerNorm((1280,), eps=1e-05, elementwise_affine=True)
        (attn): CausalSelfAttention(
          (qkv): Linear(in_features=1280, out_features=3840, bias=True)
          (proj): Linear(in_features=1280, out_features=1280, bias=True)
        )
        (dropout_1): Dropout(p=0.1, inplace=False)
        (ln_2): LayerNorm((1280,), eps=1e-05, elementwise_affine=True)
        (mlp): MLP(
          (fc1): Linear(in_features=1280, out_features=5120, bias=True)
          (act): GELU(approximate=tanh)
          (fc2): Linear(in_features=5120, out_features=1280, bias=True)
        )
        (dropout_2): Dropout(p=0.1, inplace=False)
      )
    )
    (norm_f): LayerNorm((1280,), eps=1e-05, elementwise_affine=True)
  )
  (image_emb): Conv2d(1, 1280, kernel_size=(14, 14), stride=(14, 14), padding=valid)
  (ret_emb): Embedding(120, 1280)
  (act_emb): Embedding(18, 1280)
  (rew_emb): Embedding(4, 1280)
  (ret_linear): Linear(in_features=1280, out_features=120, bias=True)
  (act_linear): Linear(in_features=1280, out_features=18, bias=True)
  (rew_linear): Linear(in_features=1280, out_features=4, bias=True)
)
seeds: [625644691, 3310491232, 3030156252, 3143739853, 3436061708, 2288794160, 1958272647, 4067669068, 1440320622, 766483143, 1490372778, 2690030966, 905525119,
4106420999, 2385423402, 3513361400]
/home/exing/miniconda3/envs/mgdt/lib/python3.10/site-packages/gym/utils/passive_env_checker.py:233: DeprecationWarning: `np.bool8` is a deprecated alias for `np.
…
